Autophagy/conformation-search/Graph-Matching-Networks-main/model_GMNs.ckpt (torch, 551838 bytes, 100 tensors)

_encoder.MLP1.0.weight f4 [32, 8]
000000 c3 d2 e9 bc 8a a8 34 bc a8 a4 06 be 09 d0 a8 3d
       -0.028542882 -0.011026511 -0.13148749 0.082428046
000010 66 00 4e be d6 e3 7a bd 8e 71 0d 3e e0 77 aa 3e
       -0.2011734 -0.061252438 0.13812849 0.33294582
000020 a2 99 9f 3d ed 51 00 be ab c4 e9 3c 7a 44 38 bd
       0.07792975 -0.12531252 0.028536161 -0.04498718
000030 20 49 0e 3e 16 d8 0f 3d 74 53 08 3e d0 d0 ac 3e
       0.13895082 0.035118185 0.13313085 0.3375306
000040 0b 1f 1e be bf a3 a4 bc d7 f4 96 3d ff 64 22 bc
       -0.1544153 -0.020097611 0.07370918 -0.009911775
000050 f4 d5 29 bd 52 16 a4 be 41 0a a0 be 8a c8 a6 be
       -0.041463807 -0.3204828 -0.31257823 -0.32574874
000060 1e 58 b6 be be cf ad be 59 5a 8e be be 7c a8 be
       -0.35614103 -0.33947557 -0.27803305 -0.3290767
000070 0c 07 af be 1c 43 14 3e 7a 9c 53 3e 69 31 6a 3e
       -0.34185064 0.14478725 0.2066516 0.22870411
000080 25 9f 45 3e 60 85 fa 3d 2e 14 22 3e e9 a0 45 be
       0.1929899 0.122324705 0.1582801 -0.19299664
000090 c6 45 a4 3e 78 0f b3 bc bb 79 9d 3e 94 26 e3 3d
       0.32084483 -0.021857962 0.30756935 0.110913426
0000a0 da 28 8e 3e 16 df 90 3e 61 64 95 bd e7 b3 d0 bd
       0.27765542 0.282952 -0.072945364 -0.10190564
0000b0 da af 5d 3d 9d 0a 67 bc 97 4b 66 3d 66 9b 38 3e
       0.054122783 -0.0141016515 0.05622443 0.1802803
0000c0 30 bb 90 be ee 65 b9 bc ac 59 91 be 10 89 ab 3e
       -0.28267813 -0.022631612 -0.28388727 0.33503008
0000d0 83 97 82 be 09 ba 7a 3d 5a f4 d2 bd be 37 47 3e
       -0.2550622 0.061212573 -0.103005126 0.19454858
0000e0 3a 24 1f 3b cc 90 0c bd 6f 21 85 3e 4b f9 a5 3e
       0.0024283067 -0.034317777 0.2600207 0.32416758
0000f0 d3 bb 82 be 52 f6 ad be 79 8c fb 3c cc 9d e6 3d
       -0.25533924 -0.3397699 0.030706631 0.11260566
000100 78 9f 9e 3d 36 8d a5 3e e4 31 1f 3e bb dd 29 be
       0.0774526 0.32334298 0.15546376 -0.1658849
000110 61 3e 7b be a5 c7 8a 3e e9 d5 ab 3e 72 1d 2f be
       -0.24535514 0.27105442 0.33561638 -0.17101076
000120 da 69 63 be ff 02 03 3e 68 9f 7e be a0 a1 a6 bd
       -0.22208348 0.12794112 -0.24865496 -0.08136296
000130 6e e5 b0 be ab ac ce 3d 19 4f ee bd 22 42 46 be
       -0.3455004 0.100915276 -0.116361804 -0.19361165
000140 93 67 65 be a8 28 fd bd 55 c2 2c 3e 55 7c aa 3c
       -0.22402792 -0.1236127 0.16871007 0.02081124
000150 c5 49 9c 3e 22 96 00 be 7c 46 d2 bd 5e 94 b1 3e
       0.30525032 -0.12557271 -0.1026735 0.34683508
000160 de 29 ab be 42 82 0b be 6a 99 5d be 49 aa af 3e
       -0.3343038 -0.13623908 -0.21640554 0.34309605
000170 79 bf 43 3e f0 9a ec bd 38 b1 16 be ed 10 e4 3d
       0.1911601 -0.115529895 -0.14716041 0.11136041
000180 30 f6 fa bd df 9d da 3d ff 68 3c be 01 22 63 be
       -0.12253988 0.10674643 -0.18399428 -0.2218094
000190 78 83 42 bc 61 7b 51 3e b0 a0 98 3e 06 d7 99 3d
       -0.011872165 0.20457222 0.29810095 0.075117156
0001a0 43 a4 55 be 03 a4 3e 3e e8 81 0e 3e 72 d0 1b 3e
       -0.20863442 0.18617253 0.13916743 0.15216234
0001b0 07 a9 ee bd 69 e4 3d bd 8e 72 28 3e ba ed 16 3e
       -0.11653333 -0.046360407 0.16449949 0.14739123
0001c0 3a aa 70 3e 19 fa 58 be 5d 84 63 3e f2 a2 0c be
       0.23502436 -0.21189155 0.22218461 -0.13734034
0001d0 89 77 0e bc bd 37 2a be 33 47 d6 bd 5d 41 74 3e
       -0.008695492 -0.16622825 -0.10462799 0.23853059
0001e0 73 8a 9b 3e 7a be ff 3d f1 e3 86 be 6e b8 03 be
       0.30379066 0.124875024 -0.2634578 -0.12863323
0001f0 ce ee 7c 3e 89 bf bf bd 93 f9 92 be c2 c5 ab 3d
       0.24700472 -0.09362704 -0.28706035 0.08387329
000200 e6 3c a0 be 18 e3 a1 ba df 5c 2e bd c3 66 8c 3b
       -0.31296462 -0.0012351004 -0.042569038 0.004284711
000210 c4 90 aa bd 6e f8 4f bd f2 f0 59 be dd 1c 6e be
       -0.08328393 -0.05077403 -0.2128332 -0.23253198
000220 25 10 f2 3d c6 60 a4 3e 21 86 8f be 11 c9 a9 be
       0.118194856 0.32105082 -0.2803202 -0.33161214
000230 17 a4 41 be 03 d8 ae 3e 80 01 a4 3e 85 0d af be
       -0.18910252 0.3414918 0.32032394 -0.34190002
000240 be 7b b5 3d e6 05 4f 3d 03 63 a1 3e 75 3c d3 bd
       0.088614926 0.050542735 0.31520852 -0.10314266
000250 a7 9b f4 3d 33 61 30 be f6 a2 a7 be f8 37 2e 3d
       0.11943751 -0.17224579 -0.32741517 0.042533845
000260 14 a0 28 be c7 69 82 bc 0e 1a 93 bd 0a 37 8f be
       -0.16467315 -0.01591958 -0.07182704 -0.2797168
000270 d5 5b 5a 3e b4 35 80 3e 30 9e 8d 3e 07 86 55 3d
       0.21324094 0.25040972 0.2765975 0.05212977
000280 32 fa a9 be 1f cd 8f be 83 88 10 bd 6c 97 0e bd
       -0.33198696 -0.28086182 -0.035286438 -0.034812376
000290 a8 57 a3 be 68 4c 62 3e 07 02 86 be bc 18 04 bc
       -0.31902814 0.22099459 -0.26173422 -0.008062538
0002a0 c8 2b ae be f1 52 c5 3d 80 bb a6 ba 5a 6f 77 3e
       -0.34017777 0.096349604 -0.0012720674 0.24163571
0002b0 81 55 67 3d 41 41 90 be 1c 2c a9 3e 74 42 9d be
       0.056478027 -0.28174785 0.33041465 -0.30714762
0002c0 d2 91 30 3e fc 57 79 be e5 21 46 3e b7 4d ba 3d
       0.17243126 -0.2434997 0.19348867 0.09096854
0002d0 9d 66 c7 3d 00 cb a6 bd d5 94 a6 3e e5 d8 b1 3e
       0.09736369 -0.08144188 0.32535425 0.3473579
0002e0 28 e6 27 bd 08 ca ef bd 6b f6 4e 3d b9 87 64 3e
       -0.04099098 -0.11708456 0.05052797 0.22317399
0002f0 7a 29 a6 3e 8d 44 a2 3e 34 ca 23 3e 69 25 15 3d
       0.3245352 0.31692925 0.15995103 0.03641263
000300 06 c3 86 be 55 c2 8b be 01 43 71 3e c9 da a4 be
       -0.26320666 -0.272967 0.23560716 -0.3219817
000310 aa c0 9c bc 17 42 91 3e b7 29 9e be c2 c2 7e be
       -0.019134838 0.28370735 -0.308912 -0.24878982
000320 e4 b3 b1 be 9d da 48 3e 7b 08 a4 3d 6f f7 5e 3e
       -0.34707558 0.19614644 0.0800943 0.21774076
000330 21 49 30 bd ed 6f e1 bd 3e 45 9a 3e 41 d9 67 be
       -0.04303849 -0.11007676 0.30130953 -0.2264147
000340 b9 75 6e be b8 b7 71 3e 81 5e a4 3e 61 a4 3f be
       -0.23287095 0.2360524 0.3210335 -0.1871505
000350 42 32 b0 be 1f e4 3a 3c 36 9b 0c bc 0c 5c cb 3d
       -0.34413344 0.011406927 -0.008581927 0.09929666
000360 f3 50 41 3e 85 a8 1d 3d 80 c5 6a be 75 a1 cd bc
       0.18878536 0.03849079 -0.22926903 -0.025101403
000370 37 63 26 3e 23 70 6a 3d d4 b9 78 be ea 12 b4 bc
       0.16248785 0.05723585 -0.24289638 -0.021981675
000380 21 75 8f bd 2a e2 20 be d2 d8 32 3e a8 76 09 3e
       -0.070047624 -0.15711275 0.17465523 0.1342417
000390 c2 7e 96 3e 19 c9 94 3e 2d 08 95 bc e8 91 94 be
       0.29393584 0.29059675 -0.018192375 -0.29017568
0003a0 5c 1a f9 3d 46 8b 42 3e 73 26 5e 3e 29 00 61 3e
       0.12163231 0.18998441 0.21694355 0.21972717
0003b0 ff 52 4a 3e 0a e0 a6 3d fb 30 ee 3c 79 c4 39 3e
       0.19758223 0.08148201 0.02907609 0.18141355
0003c0 bb 0f b3 be 42 d3 32 3e e2 f9 c9 3d 21 88 c1 3d
       -0.3497294 0.17463401 0.098621145 0.09449793
0003d0 7c 63 c8 bd 84 a1 d0 3d 1d 29 ac 3d d3 15 b0 be
       -0.097846 0.10187057 0.08406279 -0.3439165
0003e0 67 e6 26 be 6b e3 37 3e e5 b1 77 be 88 b8 fa bd
       -0.16298829 0.17957847 -0.24188955 -0.12242228
0003f0 43 c5 55 3e 34 17 3d 3e fc 85 8a be c9 0d 24 3e
       0.2087603 0.18465883 -0.27055347 0.16020884

_encoder.MLP1.0.bias f4 [32]
000000 0f 54 82 be fd e5 9b 3e a5 84 33 bd c6 69 1b 3d
       -0.25454757 0.30448905 -0.04382767 0.03794267
000010 01 dd d6 3d 5c b9 8a be fd a0 7b 3e 5f 2c 6e be
       0.10491372 -0.27094543 0.24573131 -0.23259114
000020 bc 22 a3 be 0e f6 90 3d 04 53 ce 3d 5a 00 84 3e
       -0.31862438 0.07078181 0.10074428 0.25781518
000030 4d 68 95 be e7 e7 91 bd 62 c7 8d 3e d2 73 43 3e
       -0.29181138 -0.0712431 0.2769118 0.1908715
000040 ff b4 94 be 14 56 3c bc dc 3c 52 3d 4c 52 6a be
       -0.2904434 -0.011495132 0.05132757 -0.22882956
000050 fc 25 5e 3e 2a 4a ce 3c 6d f1 de bd 14 88 32 3e
       0.21694177 0.025181849 -0.10885892 0.17434722
000060 cb ef 09 3e 63 92 8c 3e 90 68 03 3e 1a cb 91 be
       0.1347038 0.27455434 0.12832856 -0.28475267
000070 6e 88 36 3e cf 68 25 3e 98 50 8e 3d a7 fd 57 be
       0.17825481 0.16153263 0.06948966 -0.21092854

_encoder.MLP2.0.weight f4 [16, 4]
000000 f2 69 5e 3d 78 7a fb 3e 1f 65 0c bd 57 46 85 be
       0.054300256 0.49116874 -0.034276124 -0.26030228
000010 84 94 f2 be f1 18 b8 3b 3c 79 3d 3e 69 00 73 3c
       -0.47378933 0.0056182076 0.18503278 0.014831641
000020 7d 80 0b 3e 08 1f 38 3e 39 e9 90 3e 77 7f dd 3e
       0.13623233 0.17980587 0.28302935 0.4326131
000030 39 a8 08 3d 73 86 bc be 6c bc 2c 3d 97 61 36 be
       0.033363555 -0.36821327 0.04217188 -0.17810665
000040 85 c3 94 3e 4a 61 3c 3e 87 75 35 3e 7f ad 6e 3e
       0.2905542 0.18396488 0.17720614 0.23308371
000050 46 c1 dc be 39 20 30 be 79 62 a3 3e 94 ad 70 be
       -0.43116206 -0.17199792 0.31911066 -0.23503715
000060 dc c9 33 3e b1 d6 b5 3e 9c a2 c0 3e a3 42 be be
       0.17557472 0.3551536 0.3762406 -0.37160215
000070 4e 0f 5c 3e e8 c5 9b bc ad f1 16 3e 8d 79 e7 3e
       0.21490213 -0.019015267 0.1474063 0.45209923
000080 72 38 7f 3e ec 7a f9 be 89 b0 e6 3d 9a 34 df be
       0.24923876 -0.48726594 0.1126414 -0.4359482
000090 09 dc b6 3e 96 fb d6 be ab 50 fe 3e 43 d0 b3 be
       0.35714749 -0.4198882 0.4967092 -0.3511983
0000a0 d9 f2 41 3e db df 6b 3e 5b f2 2f 3e c7 3c f3 3e
       0.18940295 0.23034613 0.17182295 0.47507307
0000b0 90 a0 d0 3d 19 b0 ea be 43 d0 eb be 10 eb 02 3f
       0.10186875 -0.45837477 -0.4605733 0.51139927
0000c0 0f 6c bb 3d f4 00 e2 bd 03 a1 15 be 16 51 1d 3e
       0.0915147 -0.11035338 -0.14612202 0.15362963
0000d0 1e 2d 01 be 77 67 1c 3e 15 ca 90 be 7c e6 7c 3e
       -0.12614867 0.15273844 -0.28279176 0.24697298
0000e0 6b 16 b2 bd 86 36 c6 3e 59 e0 e8 3e fe 7e 15 3e
       -0.08695682 0.38713473 0.45483664 0.14599225
0000f0 a0 c9 04 3e 20 68 e9 be 4d 39 a5 bd 58 49 a1 be
       0.12967539 -0.45587254 -0.0806757 -0.3150127

_encoder.MLP2.0.bias f4 [16]
000000 4b 04 c3 be e9 f8 96 3e bf 9c dd be 93 77 08 be
       -0.38089213 0.29486778 -0.4328365 -0.13326864
000010 bd 40 ee bd 36 c8 32 be d5 a7 0c be 72 88 0e be
       -0.116334416 -0.17459187 -0.13735898 -0.13919237
000020 bc 7f d0 3e 5e a4 ce 3e e0 83 aa be 5f 39 eb be
       0.40722454 0.40359777 -0.33303738 -0.45942208
000030 da f2 7e 3e 77 e3 a4 be e0 d7 7f 3e 20 c7 c6 3d
       0.24897328 -0.32204792 0.24984694 0.09705949

_aggregator.MLP1.0.weight f4 [256, 32]
000000 de d7 aa bd bd 89 dc 3c 9c e2 0c be fb d5 01 3d
       -0.08341955 0.026921147 -0.1375832 0.03169821
000010 56 c4 1f 3e 6f dd 1c 3e e8 8c b6 3d 6c 9a 9f bd
       0.1560224 0.15318845 0.089135945 -0.077931255
000020 3a 1b 04 3e 39 c2 2a 3e 95 2f 8a 3d 07 68 dd bd
       0.12901011 0.16675653 0.06747357 -0.10810857
000030 59 c9 ca bd 53 f4 0a be 10 e7 ad bd 24 67 17 bb
       -0.09901685 -0.13569765 -0.08491337 -0.0023102248
000040 d2 66 b9 3d bd 16 ac 3d 81 5f 8b 3d 00 f0 3e bd
       0.090528145 0.084027745 0.06805325 -0.0466156
000050 50 47 05 3e fe 3f 9d bc 3c f4 db bd 7a 3b 17 be
       0.13015485 -0.019195553 -0.107399434 -0.14768782
000060 31 8e 0e 3e b9 f7 b0 3c a3 65 ab 3d 2d ae ac bd
       0.13921429 0.021602498 0.08368995 -0.08431659
000070 85 8d 12 3e 6a ad 96 bd 97 6e 14 3e 89 bc db 3d
       0.14311798 -0.07357295 0.14495312 0.107293196
000080 a9 bb df bd d7 21 0d bd 0e 0e 1d 3e 7f b6 b9 3d
       -0.10924465 -0.0344561 0.15337393 0.090680115
000090 67 9f a6 3d f2 f6 8f bd 20 e2 81 bd 6d a0 40 3d
       0.08135872 -0.07029523 -0.06341958 0.047027994
0000a0 5e 6c 8b bd 70 68 94 3d e8 84 09 3e aa 92 82 3d
       -0.06807779 0.07246482 0.13429606 0.0637563
0000b0 06 1b 89 bd 0a 43 f4 bd 23 26 8f 3b 0b 6d 26 3d
       -0.066946074 -0.11926849 0.00436856 0.040631335
0000c0 9d 09 27 3e 58 88 03 be dc 32 1c 3e aa dd 5e bd
       0.16312261 -0.1284498 0.15253776 -0.054410614
0000d0 98 2f cd 3c 47 74 29 3e 3a 1a 9c bd 9a 98 5d bd
       0.025047109 0.16548263 -0.0762219 -0.05410061
0000e0 85 ff 91 bd 6a 5e 5a bd f7 f7 ee bd 39 52 20 be
       -0.071288146 -0.053312697 -0.11668389 -0.15656365
0000f0 2f 14 13 3d 5f da 26 be 19 f0 d7 bc 12 9c 81 bd
       0.03590792 -0.1629424 -0.026359605 -0.06328596
000100 9c a0 b3 bc 64 06 f6 bd f9 b0 23 3d 5c 27 0f be
       -0.02192717 -0.12012938 0.039963696 -0.13979858
000110 91 84 99 bd 9f 03 10 3e 54 07 8d 3d 50 08 71 3d
       -0.07495988 0.14063881 0.06886163 0.058845818
000120 9c 98 16 3e 53 34 54 bd 17 aa 0b 3e cf b9 03 3c
       0.14706653 -0.051807713 0.13639103 0.008039906
000130 30 97 e4 bd 59 02 48 bd 4a 1f 87 bd 8b 51 21 3e
       -0.11161649 -0.048830364 -0.06597765 0.15753762
000140 44 22 4f bd f3 66 fb 3c e8 d5 ab bd 86 39 a7 bd
       -0.050569788 0.030688738 -0.08390409 -0.081652686
000150 d6 5d ab bd 1f 0e be bd 51 7c 80 bd b4 8f 93 bd
       -0.08367507 -0.09280037 -0.062737115 -0.072051436
000160 7f ef b4 bd 82 dd 22 be 9a 20 a6 3c f6 da 7f 3d
       -0.08834743 -0.15904811 0.020279218 0.062464677
000170 88 b9 0f be 2a 3c 37 3e b9 50 74 bd 4b c0 7f 3d
       -0.14035618 0.17894045 -0.059647296 0.062439244
000180 5c 19 d2 bd b9 a2 c9 3c 7e 6d c8 3d 97 d4 71 bd
       -0.10258743 0.024613725 0.09786509 -0.059040632
000190 27 eb 03 be f9 2b 93 3d 2c a0 38 bd 49 e4 75 3d
       -0.12882672 0.071861215 -0.045074627 0.060032163
0001a0 ec 1f 87 3d 2f 83 2f 3e d5 95 c1 3d b5 94 f5 3d
       0.065978855 0.17139886 0.09452406 0.11991254
0001b0 ff 5c 01 3e 6a fb ec 3d 55 4f a1 bd 88 a3 4d bd
       0.12633131 0.11571391 -0.078764595 -0.050204784
0001c0 c0 23 04 3e 7a 47 80 3d 8b 97 f2 bb 3c 16 3b bd
       0.12904263 0.06263633 -0.0074033192 -0.0456755
0001d0 87 31 16 be 1b 96 f8 bd 7d 70 41 3c 61 ed ad bd
       -0.1466733 -0.12138005 0.011806604 -0.08492542
0001e0 d3 c7 6a bd 17 ef 05 bd 38 dd 0b be cc e2 d9 bd
       -0.057319473 -0.032698717 -0.13658607 -0.10638961
0001f0 0a dc b0 3d 0d 39 07 be 58 54 3a bd ea 67 7b 3d
       0.08635719 -0.13205357 -0.045490593 0.061378397
000200 35 ec ff bd 39 75 26 be f9 8c d1 3c c3 46 23 be
       -0.12496225 -0.16255654 0.025579916 -0.15944962
000210 77 08 32 bd b3 94 2e bd a7 ce c2 bd 5e 75 29 3e
       -0.043465104 -0.04262228 -0.09512072 0.16548678
000220 62 e6 64 bb 2c b0 26 be 68 7e 6d 3d 1c 86 8a 3d
       -0.0034927358 -0.16278142 0.05798188 0.067638606
000230 75 bc ce bd e7 64 4f 3d e2 0a da 3d 05 7e 7c 3d
       -0.10094539 0.050633337 0.10646607 0.06164362
000240 e2 cd 47 bd 13 db 65 bd 3f 0a fe 3d fc fc 0d 3e
       -0.04878033 -0.05611713 0.12404298 0.13866037
000250 30 80 bf bd ff 1a bd 3d f9 c9 22 be 38 b9 47 3d
       -0.09350622 0.09233665 -0.15897359 0.048760623
000260 15 cb 91 bc a4 1d d6 bd 64 7e 71 bd 43 cd 79 3b
       -0.017797032 -0.10454872 -0.058958426 0.003811673
000270 b0 d0 8a bc 75 c9 22 be 58 8f 70 3c 81 d3 01 be
       -0.016945213 -0.15897162 0.014682613 -0.12678339
000280 47 78 d4 bd 92 2c 05 3e e7 a2 ea ba c3 93 2b be
       -0.103745036 0.13005283 -0.0017901332 -0.16755585
000290 65 9f 2e 3e fe 62 db 3d 4b e0 0d 3e b4 23 84 bd
       0.17052992 0.10712241 0.13855092 -0.06452122
0002a0 dc 88 d7 3d 9e 3e 00 bd 47 8f 23 3e 2a 01 ab 3d
       0.10524151 -0.031309716 0.15972625 0.083498314
0002b0 a4 4c b0 3d 79 4c 3a bb 60 fd 7c bd 8b 0f d1 bd
       0.08608368 -0.002842693 -0.061765075 -0.10208043
0002c0 6f d4 74 bd 0c 55 44 bd 02 08 a2 3c fe aa e7 bd
       -0.059772905 -0.04793267 0.019779209 -0.11311911
0002d0 8e d7 f5 bd c8 ec 05 be fb d7 c5 bd fa 3d 24 be
       -0.120040044 -0.13078606 -0.09660336 -0.16039267
0002e0 21 79 ad bd d5 3a 8b bd fb 31 c5 bd aa c1 16 be
       -0.08470369 -0.06798331 -0.09628674 -0.14722314
0002f0 57 2b 3f bd ba 45 38 3d 74 3b 55 bd bb c7 fa 3d
       -0.04667219 0.04498837 -0.052058652 0.12245127
000300 d5 fe 0a be 9b 02 f5 bd 65 41 0f bc b2 ee b6 3c
       -0.13573773 -0.119633876 -0.008743619 0.022330616
000310 cb a0 12 3e c6 20 e8 bd 0b 2c f0 3d 35 1f c3 bd
       0.1431915 -0.11334376 0.117271505 -0.09527437
000320 68 46 63 bd dc a8 6b bd f0 d2 ef bc f1 9e a2 3d
       -0.055487067 -0.057534084 -0.029275388 0.07940472
000330 34 0a 8b 3d 68 9c f5 3d 9a bf 23 be f8 26 f7 bd
       0.067890555 0.11992723 -0.15991059 -0.120679796
000340 41 ef d0 3d d3 e7 bb bd c6 99 87 bd a3 e9 2d 3e
       0.10201884 -0.09175076 -0.06621127 0.16983657
000350 c4 f2 a5 bd 80 17 69 3d fc 6f 88 3d c0 0b c9 3d
       -0.081029445 0.056907177 0.06661984 0.09816694
000360 41 6c 2e 3e df 00 e3 3c 25 93 24 3c 48 b6 9c bd
       0.17033483 0.027710376 0.010044848 -0.07651955
000370 b2 56 10 3e ad 44 09 3e 9a 8c fc ba 1e 4f 8f bd
       0.14095572 0.13405104 -0.0019267977 -0.06997512
000380 c5 15 dd 3d 4b c7 11 be a2 d1 cc bd 4b 09 8b bb
       0.10795168 -0.1423618 -0.10000922 -0.004243051
000390 e5 f3 52 3c d8 de cb 3d f4 09 e2 bd b3 df c3 3d
       0.012875532 0.099546134 -0.11037055 0.095641516
0003a0 63 17 17 be 89 fb 19 3e e0 27 10 bd 90 14 1f 3e
       -0.14755015 0.1503736 -0.035194278 0.15535188
0003b0 6f 43 7e 3c 0c 61 0e be 50 11 bf 3d 70 d8 06 bd
       0.015519007 -0.13904208 0.09329474 -0.032921255
0003c0 88 76 10 3e 18 1c 36 3e bb 1a fc bb d8 af cb bd
       0.14107716 0.17784154 -0.007693616 -0.09945649
0003d0 16 14 fc bd 85 09 b6 3d 1b 74 31 bd 38 ec ac bd
       -0.123085186 0.088885345 -0.043323617 -0.08443493
0003e0 fa f1 d2 bc 63 0b c1 3d cd c6 94 bd bb 71 d3 3d
       -0.025750149 0.09426 -0.07264481 0.10324427
0003f0 74 8e 5d bc 11 34 18 3e f5 b7 06 3e cf 69 fc 3d
       -0.013522733 0.14863612 0.13156112 0.12324869

_aggregator.MLP1.0.bias f4 [256]
000000 1e 18 26 3c 11 3c c0 bc 81 ad 9a bd 28 44 d2 bd
       0.010137586 -0.023466142 -0.075526245 -0.10266906
000010 7e fc af bd 6b 81 06 3e 0a a6 ad bc 68 4c 97 bd
       -0.08593081 0.13135307 -0.021197338 -0.0738762
000020 90 e9 b8 bc 1b c5 e8 bd dd cc f3 bd 72 2e af bd
       -0.022572309 -0.1136572 -0.11904309 -0.085537806
000030 12 4a c0 3c 57 e3 9c bd 31 2a 00 be b0 c1 09 3d
       0.02347282 -0.07660549 -0.12516095 0.03363198
000040 f3 a9 49 3d 5a ad c4 3d 48 93 1d bb ee df 82 bd
       0.04923434 0.09603377 -0.0024044085 -0.063903674
000050 fd ad dc 3d 91 97 d9 bb ff 1d 04 3e 25 ba c9 bd
       0.10775373 -0.0066403826 0.12902068 -0.098499574
000060 16 f7 37 3d 4f f1 23 3e 72 7c 94 bc 0c eb 90 bd
       0.044913374 0.1601002 -0.018125746 -0.07076082
000070 78 a8 05 3d 28 93 cb bd a0 2a 85 3d 40 97 be bd
       0.032631367 -0.09940177 0.06502271 -0.093061924
000080 21 cb 2f 3e 5a 87 26 3e ef 4e c1 3c ad 80 ba 3d
       0.17167331 0.1626257 0.023597209 0.09106574
000090 31 a3 39 bd 53 bb 39 3d fb bd 2b be b9 33 81 3c
       -0.045321647 0.045344662 -0.1677169 0.015771734
0000a0 b3 cf 4b 3d d7 82 c0 3d 7d 7f f5 3d ec 3d 05 bc
       0.049758624 0.09399956 0.11987207 -0.008132439
0000b0 70 8c 1a be 99 3c d3 bc 1b 1a 0a 3d 6a 6c de 3d
       -0.15092635 -0.025785731 0.033716302 0.10860522
0000c0 95 a6 f2 bd f6 db 11 3e 9d 90 0c 3e 47 47 c6 3d
       -0.11848179 0.14244065 0.1372704 0.09681564
0000d0 4b f4 26 be 87 c2 da bb 99 65 82 3d 46 85 c6 bd
       -0.16304128 -0.0066760215 0.063670345 -0.09693389
0000e0 4a 36 b2 3d 70 c3 76 bd 5f cb c9 bd 51 e9 c2 3c
       0.08701761 -0.060244977 -0.09853243 0.023792895
0000f0 c4 3d d7 3c 91 5a a2 3d a5 72 80 bd 5c 0c fd 3d
       0.02627457 0.079274304 -0.06271867 0.12355873
000100 b7 8a 3d bd 79 c7 30 3e 8b 39 90 bd 26 44 85 bc
       -0.046274867 0.17263593 -0.070422255 -0.016267847
000110 ae 1d 82 3d 24 e2 ec 3d d7 3e 1e 3e cb e0 62 3d
       0.06353317 0.115665704 0.15453659 0.05539016
000120 6f 72 ce bd 83 05 a5 3d 7d d4 65 bd e8 f8 2e 3e
       -0.1008042 0.08057692 -0.056110848 0.17087138
000130 51 be ea bc 20 04 61 bc 50 88 aa bc 17 a0 07 3e
       -0.028655203 -0.013733894 -0.020816952 0.13244663
000140 78 e1 83 bd ef 70 93 bd ff 6c 23 be c5 69 f3 bd
       -0.06439489 -0.07199275 -0.15959547 -0.11885408
000150 88 24 12 3e 2a 30 12 be 70 46 89 bd 10 7c 73 3c
       0.14271748 -0.14276186 -0.06702888 0.014861122
000160 79 92 b0 bd 5e 69 c5 bb 00 29 10 3e c0 0e ee 3d
       -0.086216874 -0.0060245236 0.1407814 0.11623907
000170 ab 5f 1c 3d 46 fd de 3b 5f 81 ec bd a7 a7 95 3d
       0.038177174 0.006805095 -0.11548113 0.07307368
000180 f1 96 b5 3d 19 7e 5f bd c1 c1 a9 bd ef fb ba 3b
       0.088666804 -0.054563615 -0.08288909 0.0057063024
000190 77 b8 16 3e a2 2d f2 bd 0a a1 be 3d 25 8b de bd
       0.14718805 -0.1182511 0.093080595 -0.108663835
0001a0 3a 29 07 bd 37 db 23 be e5 cc 2a 3e 88 20 c8 3d
       -0.0329983 -0.16001593 0.16679724 0.0977183
0001b0 ba d9 18 ba 0b 99 0f be 5c 66 e0 bd 3b d4 42 bd
       -0.00058307836 -0.14023225 -0.109570235 -0.04756568
0001c0 a5 25 5e 3d 47 44 09 3e 26 3e b1 3d 87 d9 2b 3e
       0.05423512 0.13404952 0.08654432 0.16782199
0001d0 8e 64 38 3c e2 e3 45 3e 2d ae af 3d 69 c1 28 3e
       0.011254443 0.19325212 0.08578143 0.1648003
0001e0 ac bf 2c be 4e ce 01 3d 3c e2 a1 3d ee e7 d3 3c
       -0.16869992 0.031690888 0.07904479 0.025867429
0001f0 4e ec 34 3e 23 38 a7 3d 58 3f 3e 3e a4 98 2d be
       0.17668268 0.08165004 0.18578851 -0.16952759
000200 67 49 32 3d 02 7e ec bd d3 87 57 3d b1 c9 30 be
       0.043527033 -0.115474716 0.052619766 -0.17264439
000210 59 cb 00 be a5 25 27 3e 6b b6 33 3c 82 6e 1e 3e
       -0.12577571 0.16322954 0.010968785 0.15471843
000220 45 e8 2e be 2c 2d 1e 3d 06 b5 48 bd a4 36 4f bd
       -0.17080791 0.038617298 -0.049000762 -0.05058922
000230 b4 5d b6 3d 07 99 bf bd 4d 5b 01 be 81 62 8c bb
       0.08904591 -0.093553595 -0.12632485 -0.0042842035
000240 96 e6 71 bc d8 b4 cf bd 50 3c ee 3c 0f 98 17 3e
       -0.014764449 -0.10141915 0.029081494 0.148041
000250 ef 26 21 3d 0e d2 05 be 2b ea 59 bc 66 39 17 be
       0.03934377 -0.13068411 -0.013300459 -0.1476799
000260 07 72 b8 bd 3c 78 cc ba a8 f6 df bb dd 3c 09 3d
       -0.09006124 -0.0015599797 -0.0068348236 0.03350531
000270 57 f2 e7 3c aa d1 26 be fd 15 f7 3c a2 97 c3 3c
       0.028313799 -0.16290918 0.030161852 0.023876015
000280 0f ce 2e be 9f f3 b2 bd e4 82 15 be 7e f0 4a bd
       -0.17070793 -0.08737873 -0.14600712 -0.049545757
000290 93 f8 b3 bd 5c 76 03 3e fa 06 ca 3d 1d 6d d0 3c
       -0.08787646 0.1283812 0.09864612 0.025442654
0002a0 a9 31 11 3d 3c 4b 0c be b9 59 35 be 9a 39 2e be
       0.03544775 -0.13700575 -0.17710008 -0.17014161
0002b0 5e ff 13 be 86 dd 8c bc c2 01 fc 3d fd d8 73 3d
       -0.14452884 -0.017195474 0.12305023 0.059533108
0002c0 35 05 2e bd b2 bd 13 3d f0 02 0b bd 0e 7e f0 bc
       -0.042485435 0.03606958 -0.03393835 -0.029356983
0002d0 90 d0 1e 3e 28 73 0f be a4 cf 21 3e 01 b3 f3 3d
       0.15509248 -0.14008772 0.15801865 0.11899377
0002e0 f2 98 e8 3d a4 a6 ab 3c 24 e2 83 bd 97 35 dc 3d
       0.11357297 0.020953484 -0.06439617 0.10752409
0002f0 63 ba 07 bc 85 25 1c bc 91 56 2a be 7b 17 69 bd
       -0.008284184 -0.00953043 -0.16634585 -0.05690716
000300 ae 46 c9 bc cb 60 f3 3d b3 e7 f9 3d 64 10 bc bd
       -0.024569836 0.11883696 0.12202396 -0.09182814
000310 82 7c f1 bc a8 47 0c bc d1 b6 22 3e 2f 33 d8 3c
       -0.029478315 -0.008562006 0.15890051 0.026391594
000320 63 b9 1f be 77 51 cd 3d 8a b6 95 3d 06 50 cc bd
       -0.15598063 0.10025304 0.07310207 -0.09976201
000330 e6 ee 1c be b0 1c 84 bd a7 1a 26 be 00 12 bc bd
       -0.15325508 -0.06450784 -0.16221105 -0.09183121
000340 bf 98 a2 bd 3b 54 6c 3d 31 c0 c9 bd 5f c0 a5 3d
       -0.0793929 0.057697516 -0.09851111 0.080933325
000350 71 99 70 bd 73 af 0c 3e 11 e8 3e bd 29 d7 c7 3d
       -0.058740083 0.13738804 -0.046608035 0.097578354
000360 5b 93 bb 3c 6f ea 0f 3d 20 02 00 be 25 08 44 3d
       0.022897413 0.035135683 -0.1250081 0.04785933
000370 91 70 de bd 65 ca 24 be ad 6e 2e 3e 2b 84 17 3e
       -0.10861314 -0.16092832 0.17034407 0.14796512
000380 50 b3 1c 3e f2 38 da bd fa 62 39 3e 61 70 63 3d
       0.15302777 -0.10655393 0.18104163 0.055527095
000390 42 1c 18 3e 58 0f 7d 3b 21 10 27 be 50 fa af 3b
       0.1485453 0.0038613882 -0.16314746 0.0053704157
0003a0 01 0d 1b 3e c2 53 21 3e 93 f6 f6 3d 77 7b 12 be
       0.1514168 0.15754607 0.12058749 -0.1430491
0003b0 c7 b7 76 3d 51 f1 2f be 7d 3b 31 bc a3 d0 13 be
       0.060233857 -0.17181899 -0.010817406 -0.14435057
0003c0 18 bd df bc 2a 13 0f be b6 20 b1 3c 1a 89 c7 bd
       -0.027311847 -0.13972154 0.021622043 -0.09742947
0003d0 56 b0 fd bd 00 1a d4 bd 6a 7c 99 bd bf 60 72 3c
       -0.12387149 -0.103565216 -0.07494433 0.014793574
0003e0 d7 10 09 3e d5 88 da bd 11 21 8c bd 1a 6d b0 bd
       0.1338533 -0.1067063 -0.068422444 -0.086145595
0003f0 24 46 d7 bd d2 f3 be 3d 6d f9 81 3b 8d 10 0f 3d
       -0.10511425 0.09323849 0.0039665014 0.034927893

_aggregator.MLP2.0.weight f4 [128, 128]
000000 6b 7b 39 bd ff 8f 93 3a c5 71 f2 bc 2c e2 2d 3d
       -0.045283716 0.0011258124 -0.029595265 0.042452022
000010 40 46 9d 3d de d4 21 3d 33 f3 af 3d 74 d2 ac 3d
       0.07679415 0.039509647 0.085913084 0.08438578
000020 88 40 ab bd 95 b3 93 bd 08 52 8e 3d 79 3d 55 bd
       -0.08361918 -0.07211987 0.0694924 -0.052060578
000030 9f d1 cd bc 02 9c a7 bd 07 e8 6e 3d 53 d6 20 3d
       -0.02512437 -0.08184053 0.058326747 0.039266896
000040 e3 19 04 bd 78 c5 19 bd e4 32 7e ba c6 a4 42 bd
       -0.03225125 -0.037541837 -0.00096969143 -0.04752042
000050 eb d1 4a 3d e6 10 b6 bd 19 5e 61 ba f5 3c 95 3d
       0.0495166 -0.08889942 -0.00085970905 0.07287017
000060 15 3c 82 bd d8 70 bb bd e7 04 2a bd 5b 70 b2 3d
       -0.06359116 -0.091523826 -0.04150858 0.08712836
000070 02 51 c9 bc cd 1e 07 bd f7 45 94 bd 79 90 8d bc
       -0.02457476 -0.03298836 -0.07239907 -0.017280804
000080 f1 cc cb 3c 49 12 54 3d a2 ae d1 bc 1a 8a a1 bd
       0.024877997 0.05177525 -0.025595967 -0.07887669
000090 b7 97 29 bd cd 4f d1 3c a7 13 f9 bc 2f a2 16 3c
       -0.041404452 0.025550747 -0.030404879 0.009193941
0000a0 08 b6 d4 bb f3 ff bb 3c 1e f5 c1 3c 64 a1 bd 3a
       -0.0064914264 0.022949195 0.023676451 0.0014467654
0000b0 02 2f 94 bd ea 29 80 3d 9c e6 81 bd a2 53 20 3d
       -0.072355285 0.062579945 -0.063428134 0.03914226
0000c0 c5 29 5c bd 4b 4d 2a bd 81 ec 9a 3d c2 bd 12 bc
       -0.053750772 -0.04157762 0.07564641 -0.008956375
0000d0 9c 29 61 bd 6e 73 7c bd f0 29 95 bd 38 7b 89 bc
       -0.054971322 -0.06163352 -0.072833896 -0.016782388
0000e0 1f b8 fe bb 5a b9 1f 3b 0c ef 59 bd 59 ee 9d 3d
       -0.007773414 0.0024371953 -0.05320649 0.07711477
0000f0 95 05 94 3d 97 53 7b bb 18 98 72 bd f6 d4 25 bd
       0.07227627 -0.0038349384 -0.05922708 -0.0404863
000100 70 30 9b bc 96 cd 13 bc a3 5f b2 bd 7a 38 50 bb
       -0.018943995 -0.0090211835 -0.087096475 -0.0031771944
000110 68 e7 82 3c f2 c6 40 3d 62 48 48 3c 38 dd 8c bd
       0.015979484 0.04706473 0.012224289 -0.06878132
000120 f6 85 6d bd 34 58 af 3c 30 7f 6f 3d 1b 03 aa 3c
       -0.057989083 0.021404363 0.058470905 0.020753434
000130 11 85 90 3c 4c 42 82 bd 1b 28 9b 3c b5 7a 82 3c
       0.017641576 -0.063603014 0.018940022 0.015927652
000140 e3 92 a3 bd f3 4e 2d bd ae ce 21 bd 8f 58 ca ba
       -0.07987001 -0.04231162 -0.039503746 -0.001543777
000150 b6 31 c9 bb 6e 8b a7 3c f9 ea 58 3d 24 c5 ad 3c
       -0.006139959 0.020452227 0.052958462 0.021212168
000160 bc c8 0e bd c8 79 4f bd db a1 22 bd cd f3 9e bd
       -0.034859404 -0.05065325 -0.03970514 -0.07761345
000170 4b ed 7e bd a9 99 7e 3d 13 fe 3c bd 10 e3 88 3d
       -0.06223802 0.06215826 -0.04614074 0.06683934
000180 6b 0a 1a 3d 5a 66 ba 3d 84 0f 12 bc 76 a6 19 3d
       0.03760759 0.09101553 -0.008914832 0.037512265
000190 b5 4a 48 bd f9 80 11 3d 1e 9e 2a 3d 7d 58 c4 3b
       -0.04889937 0.03552339 0.0416547 0.005991994
0001a0 fd 8f 8c 3d d9 fe e0 3c 49 31 71 bb 2c e3 7e bd
       0.06863401 0.02746527 -0.0036803058 -0.062228367
0001b0 96 05 83 bb c9 36 92 3d df e7 04 3c d9 dd 11 3c
       -0.0039984686 0.07139356 0.008111923 0.00890299
0001c0 43 e7 28 3b c5 db 14 bd 58 de 80 bd fe 03 64 3c
       0.0025772608 -0.0363424 -0.06292409 0.013916967
0001d0 45 63 c2 3a 70 56 b2 3d 24 21 f2 bb 6e 35 91 bd
       0.001483061 0.08707893 -0.0073892046 -0.07090269
0001e0 00 b3 a1 bd 8a fb bb 3d c2 f5 12 bd fb fd 38 3d
       -0.0789547 0.09178837 -0.035878904 0.04516409
0001f0 6f a6 d0 3c 8f 43 35 3c f6 03 30 bd f3 98 8b 3d
       0.025469987 0.0110634705 -0.042972527 0.06816282
000200 40 79 8b 3d 31 e2 1d bc 6e 9b db bc c4 dd b3 bc
       0.06810236 -0.009636448 -0.026807513 -0.021956332
000210 fa 35 dc 3b c6 8b d7 bc 69 ed 84 bd e9 d1 50 bd
       0.0067203017 -0.026311766 -0.06490595 -0.050981436
000220 42 0e b0 bd 7b 3f da bd 1d 7b b0 3d a0 65 e3 3c
       -0.085964695 -0.10656639 0.08617232 0.02775842
000230 e0 23 18 bd 0e 3c 97 bd 01 47 5d bc 15 61 bc 3d
       -0.037143588 -0.073845014 -0.013505698 0.091982044
000240 81 6a ad 3c 1e 19 7e 3d f1 5c 8f 3d 9c fe 42 ba
       0.02116895 0.062035672 0.07000149 -0.00074384524
000250 4b 21 be 3d 0f 5c 95 3d fc 80 bd bd 88 15 84 bc
       0.09283694 0.072929494 -0.092531174 -0.016123548
000260 b7 79 41 3c ff f5 d5 3c 1c a7 a9 39 d2 b8 3f bc
       0.011808804 0.026118277 0.00032358698 -0.011701779
000270 f3 6c 73 bd cc a0 75 3d 8b c7 2b bd bd d4 22 bd
       -0.059430074 0.0599678 -0.041938346 -0.039753664
000280 2f 70 29 bd 08 6f 59 3d 07 25 0c bd 2f 02 8e 3d
       -0.041366752 0.053084403 -0.034215 0.0693401
000290 8a 29 1f 3c 26 a7 17 3d ff b1 9f bd 4a 1c 48 3c
       0.0097144935 0.03702464 -0.07797622 0.012213776
0002a0 1d df 8b 3c ba cd a0 bc 5f 46 3c bd b6 ec 3e 3d
       0.017074162 -0.019629348 -0.04596555 0.046612464
0002b0 81 9f 4d bd 89 6d 51 3d 9b d4 bb bd ec 54 64 bd
       -0.050200943 0.05112985 -0.09171411 -0.05574505
0002c0 58 b1 7b 3c e0 b0 08 bd f2 08 92 bd ac 3e ab bc
       0.015362106 -0.033371806 -0.071306124 -0.020903908
0002d0 85 9f ce 3b ff 2e 90 3d 9f 92 ca 3d 3b ad 12 3d
       0.0063056373 0.07040214 0.09891247 0.035809737
0002e0 d2 a0 bd bd 09 f1 6d 3d 5c 5f bc bd 6d d3 99 bc
       -0.0925919 0.058091197 -0.09197876 -0.018777573
0002f0 02 87 9f bb 65 cd 99 bc 7d 2c f3 bc 68 7f 96 3d
       -0.004868389 -0.018774698 -0.0296843 0.073485196
000300 9e e3 63 3d e0 72 ae 3d f3 f0 d6 3d b4 dc bb 3d
       0.055636995 0.085180044 0.10495176 0.09172955
000310 fd 94 51 3d 19 d5 99 bd 0b f3 3a 3d bb e9 67 bc
       0.051167477 -0.07511348 0.04564194 -0.014154847
000320 8c 4a b0 3d 39 0d 28 3c fe b1 8d bc 08 5b 91 3d
       0.08607969 0.010257059 -0.017296787 0.07097441
000330 b3 f4 2e bd 49 cf 1e 3b 25 64 94 bb 90 f6 6d 3d
       -0.042713832 0.0024232438 -0.0045285397 0.05809647
000340 2e f9 a1 3d 83 d0 8b 3c 6c ad 63 3d a2 8a 71 bd
       0.079088554 0.0170672 0.05558531 -0.0589701
000350 4f 9e d5 3b c4 60 b5 bd 6a e0 da bc ec c5 ab bb
       0.006519116 -0.08856347 -0.026718337 -0.0052421
000360 bf 9c b6 bd bd 04 6d bd 69 0d a9 bd fa 79 5a 3c
       -0.08916616 -0.057865847 -0.08254511 0.013334746
000370 7f 92 43 bd dc 21 e9 bc 96 13 0e 3d 35 1d 6d bd
       -0.04774713 -0.028458528 0.034686647 -0.057889182
000380 0d 7b 3b bd c9 5d 9d 3d a5 33 b0 bd 3c ee 5b 3d
       -0.045771647 0.07683904 -0.086036004 0.053693995
000390 34 ab 90 3d 3c 2b 91 3b d4 c7 b3 bd a5 41 b7 bd
       0.070639044 0.004430203 -0.087783486 -0.089480676
0003a0 76 1e 56 3d 9a f6 22 3d 64 21 57 3c 7c cf 03 3d
       0.052275144 0.03978596 0.01313052 0.032180294
0003b0 93 51 8d 3c c0 57 12 3c 55 58 d4 3d e3 83 02 bd
       0.017250812 0.008932054 0.103684105 -0.03186406
0003c0 0b 41 28 3d 56 a6 84 3d d4 f2 8d bc 00 f7 22 3c
       0.041077655 0.064770386 -0.017327704 0.009946585
0003d0 99 5b da bc 47 84 b5 bc a5 c0 99 bd 64 f9 a4 bd
       -0.026655005 -0.022157801 -0.07507447 -0.0805538
0003e0 25 31 f6 bc 6b 29 68 bb 75 18 6e bb 95 45 a4 bd
       -0.03005273 -0.0035425078 -0.0036330495 -0.08021084
0003f0 c1 c6 3c 3b d6 54 fb 3c 7e 00 0f bd a0 8b 9a 3d
       0.002880499 0.030680101 -0.03491258 0.075461626

_aggregator.MLP2.0.bias f4 [128]
000000 dd 6b 28 3d 57 01 ab 3c f1 55 06 bc fe b1 af bc
       0.04111849 0.020874662 -0.008199201 -0.021447178
000010 89 9b b5 bc 96 d7 9a 3b 22 93 27 bd 7a 0d 83 3d
       -0.022168892 0.004725407 -0.0409118 0.06399055
000020 5b 9f 9d 3c 73 22 83 bc 04 75 b7 bc 26 17 93 bc
       0.019241026 -0.016007638 -0.022394665 -0.017955374
000030 6c 9b 04 3c 64 9b 03 3d 39 b5 dd bb f8 61 a0 3c
       0.008093696 0.032130614 -0.006765988 0.019577965
000040 68 c8 05 bd d7 30 1f 3d d6 c5 6f 3d 2f 07 37 bd
       -0.032661825 0.038864937 0.05853828 -0.044684585
000050 be 73 ac bc f9 cd 93 b5 34 0a b0 3d 8a 0a 06 3d
       -0.021051284 -1.1012299e-06 0.08595696 0.032724895
000060 1b 0a bf 3c 70 20 d6 3c 4b da 40 3d c8 cc 4a 3d
       0.023320248 0.026138514 0.04708318 0.0495117
000070 b4 2c 59 bc 70 e7 03 3d b9 50 0b 3d 93 e8 9c 3c
       -0.013255287 0.032203138 0.03401253 0.019153869
000080 fb cc 01 3d 4f 1e b9 3c 21 9b f3 3c 71 09 db ba
       0.031689625 0.02259746 0.029737057 -0.0016711188
000090 65 ca 01 3d 1a 31 e7 bc 24 17 bf bc 51 af d8 3c
       0.03168716 -0.028221656 -0.023326464 0.026450785
0000a0 e0 2b b8 3c ff 44 ed bb d5 44 e2 bc 4a bc 6f 3d
       0.022481859 -0.007240891 -0.027620712 0.058529176
0000b0 7e b0 0a bc 2d e9 89 bc f0 ee 28 ba b2 de cd ba
       -0.008464931 -0.01683482 -0.0006444296 -0.0015706627
0000c0 bd a3 84 bc 8b 36 93 bc 17 8d 5e bc fd 75 6a bb
       -0.016191358 -0.017970344 -0.013583443 -0.0035775893
0000d0 95 74 d2 bc 96 38 d7 3c a6 07 95 bb ae ed 16 bd
       -0.025690356 0.0262721 -0.004548031 -0.036847763
0000e0 67 dc 31 bc ef e5 90 3b cc 5f 98 3d ee a8 d6 bc
       -0.010855771 0.0044219415 0.07440147 -0.026203599
0000f0 91 bd 05 3d 75 73 e5 3c 2e f1 3f 39 1c fc 4a 3b
       0.032651488 0.028009156 0.00018305026 0.0030973023
000100 8d 4c 5d 3d 30 7c a9 3c 60 d4 11 bc b2 51 3e 3d
       0.054028083 0.0206891 -0.008900732 0.04646463
000110 ff 44 40 bc 2c 32 9a bd de 61 50 3d 77 43 01 bd
       -0.0117352 -0.07529101 0.050874583 -0.03155848
000120 61 2f d4 bc e8 14 6b 3c 31 2e 8f bc 37 ac 5f 3d
       -0.025901498 0.014348246 -0.01747808 0.054607596
000130 18 35 d5 3c bf b3 24 3c 95 ad e9 bc b7 5c 8e bb
       0.026026294 0.01005262 -0.028525153 -0.0043445486
000140 e1 c3 8b 3c 56 ce 9c bb 9c 49 fa 3c e4 a9 7d 38
       0.017061176 -0.0047853393 0.030552678 6.0478123e-05
000150 72 c6 12 bb 9d cb ca ba 75 27 64 bb 97 dd 0b 3d
       -0.0022396115 -0.0015472058 -0.0034813557 0.03414687
000160 ad 38 d7 bc 44 f0 e3 3b e9 e5 b7 3b a1 f5 14 3d
       -0.026272142 0.006956132 0.005612124 0.036367062
000170 b7 71 32 3d a9 1c 18 bc 3e 59 3d 3d 7d f2 41 3d
       0.04356548 -0.009284177 0.046227686 0.047350395
000180 4c 63 c0 3c c5 3e c1 bc 13 f4 5e bc 62 49 e7 bc
       0.023484848 -0.023589501 -0.0136079965 -0.028233234
000190 0a be 86 bd 3f 2a 89 bb ef 41 a8 bc c6 07 c4 bb
       -0.06579216 -0.0041859443 -0.020539252 -0.005982372
0001a0 a8 0c 59 3c a8 ca d6 bb 22 10 e4 3c 85 65 08 3c
       0.013247646 -0.00655492 0.027839724 0.008324985
0001b0 f3 2f c8 ba 03 43 61 bc 01 ea cd bc 44 d8 b1 bb
       -0.0015273079 -0.013748887 -0.025135996 -0.005427392
0001c0 37 18 15 bd 46 ad 51 3d 1b 67 45 3d d6 2c 38 3d
       -0.036400046 0.051190637 0.048194032 0.044964634
0001d0 95 42 26 3d cf 64 b1 bc 8c dd ad bc 01 fa 73 3d
       0.04059084 -0.021654515 -0.021223806 0.059564594
0001e0 07 7a 43 3d 46 81 73 bc 1f 4e 10 3c 76 d6 d1 bc
       0.047723796 -0.014862364 0.008807688 -0.025614958
0001f0 cc ce f5 bc 4c f9 70 bc 65 f1 41 3c bb eb 97 3c
       -0.030005835 -0.0147078745 0.011837338 0.018545022

_prop_layers.0._message_net.0.weight f4 [64, 80]
000000 c1 c6 f2 3c df 30 61 3c 1e 43 cd bd d6 10 be 3b
       0.029635789 0.013744562 -0.10022567 0.005800347
000010 3d 28 0a bd 6c ad a2 bd d7 c9 b5 bd 27 a5 e6 bc
       -0.03372978 -0.07943234 -0.088763885 -0.028154923
000020 a9 9e bd 3d df f1 c9 3d 81 9f cf 3d 0d b1 33 bb
       0.09258778 0.098605864 0.10137845 -0.0027418763
000030 2e 40 84 3d ab ef da 3c 40 6d ed bc 0a bc 80 3d
       0.06457554 0.02672561 -0.028982759 0.062858656
000040 14 5b c5 3c 84 9d 9e 3d bb a7 b7 bd 1f b5 9b bb
       0.024091281 0.077448875 -0.08967539 -0.004751816
000050 1f 0a a7 3d aa 45 8a bb ea 6d a3 bd 1d 49 ef 3c
       0.08156227 -0.0042197304 -0.07979949 0.029209668
000060 6f eb f3 bc b4 aa 21 3c ac 91 95 3d d8 e4 41 bc
       -0.02977535 0.009867359 0.07303175 -0.011834346
000070 af 4f bf 3c e1 e3 8b bd ac d2 98 3d 37 5d 15 bd
       0.023353426 -0.06830574 0.074620575 -0.03646585
000080 c2 5f a4 bc 60 f3 e8 bc eb 0e 72 bc ef 02 4b bd
       -0.020065192 -0.028436363 -0.0147740645 -0.049563345
000090 12 7c c6 bc a4 9b 90 3d 12 a6 8b 3d ae f0 b5 3b
       -0.024229083 0.07060936 0.06818785 0.005552373
0000a0 66 a1 82 3d 4b 98 cf bd 3b 2b c4 bc 1b 53 32 bc
       0.063784406 -0.101364695 -0.023946395 -0.010884072
0000b0 75 8e e1 bc 40 ec c4 3d ac 1f bc 3d b7 03 e0 3d
       -0.02753375 0.096153736 0.091857284 0.109382086
0000c0 c1 16 8a bd 32 e0 88 3d 7a bf fd 3c a4 2e 36 bd
       -0.06742621 0.06683387 0.030975092 -0.044478074
0000d0 07 62 0c bc a6 94 58 3d ae bf 62 3d c4 4f 9b 3d
       -0.008568293 0.052876137 0.05535858 0.075835735
0000e0 74 b6 97 3d 32 9c df bd 02 a4 86 3d 62 7d 92 bb
       0.07407847 -0.10918464 0.06574251 -0.004470513
0000f0 38 94 b8 3d b7 5b 70 3d 73 6b 85 3c 3a 0a 58 3d
       0.090126455 0.058681216 0.016286587 0.052744128
000100 c1 f7 9b 3d c2 6f 7b 3d 2e d7 ce 3d a4 66 b0 bc
       0.07615615 0.061385877 0.10099636 -0.021533318
000110 85 54 a2 3d 18 1b 5b bd 74 2b b7 bd a7 e9 7b 3d
       0.07926277 -0.053492635 -0.08943835 0.061502125
000120 2c e0 c4 bc c8 ff ca bd 76 a8 b9 bc 1a 7c c1 3d
       -0.024032675 -0.09912068 -0.022663336 0.094474986
000130 87 f6 a6 bd d2 22 85 3d 84 97 d2 3d bc f9 b8 bd
       -0.0815249 0.06500782 0.102828056 -0.09032008
000140 0d f9 9f bd cf ce dd bd 78 b2 d5 3c 4b 20 18 3d
       -0.078111745 -0.10830461 0.026086077 0.037140172
000150 f0 c1 b3 3d 53 a5 70 3d 4c c7 34 3d 9e ed c1 bc
       0.08777225 0.058751415 0.044135377 -0.023672875
000160 5b 59 b8 3d a3 d3 03 3d 7d 53 b6 3d ee c9 82 3d
       0.09001418 0.032184254 0.08902643 0.06386171
000170 8a bb d2 3d d8 03 11 bc 3f 55 cd 3d 4f 2d a3 3d
       0.102896765 -0.008851014 0.10026025 0.07967626
000180 a2 31 5f 3d 4f 52 ca 3d 6e 6a d0 bd d9 b1 dd bd
       0.054490693 0.0987898 -0.1017655 -0.108249374
000190 70 71 d3 bd 8e 12 c2 3d d5 dd a7 3d f4 43 59 3d
       -0.10324371 0.09476195 0.08196608 0.05304332
0001a0 4b be da bd b6 c8 87 bd cf 58 54 bd 1f 44 5b 3d
       -0.10680827 -0.066300794 -0.051842507 0.053531762
0001b0 ad 25 d1 3d 9c f7 29 bd 11 8b 01 bd ae da 9b bd
       0.10212264 -0.041495904 -0.031626765 -0.07610069
0001c0 ed 3a 72 bd a7 63 d6 bd 94 67 99 bc 2a fb ba 3c
       -0.059138227 -0.10468226 -0.018726148 0.022824842
0001d0 3f cc f2 3c 42 f0 4c 3d d4 e8 a3 bd 9c 68 bb 3d
       0.029638408 0.050033815 -0.08003393 0.09150812
0001e0 2a 09 dd 3c 6f 9c 90 bd 7d ce d6 3c 27 ff a9 bd
       0.026981909 -0.07061087 0.026221508 -0.083006196
0001f0 74 90 3e 3c 86 d3 1c bc 72 f6 40 3d 5e 7f 09 3d
       0.01163112 -0.0095719155 0.04711003 0.033568732
000200 d0 cf 88 3c 7d 5e e9 bc 99 79 72 3d 53 50 a0 bd
       0.016700655 -0.028487438 0.059197996 -0.07827821
000210 06 5e 3f 3b 46 b0 38 3c 1b c3 c7 bd 09 e6 dc bd
       0.002920033 0.011272496 -0.0975401 -0.10786063
000220 95 8d aa 3d cc 1a 39 3d 1a d7 fc 3c ba df b2 3d
       0.08327786 0.04519157 0.030864287 0.08734079
000230 de 1e f3 bc 1a 5f 9a 3d 9e 44 bd 3d d2 e6 75 bd
       -0.029677805 0.075376704 0.09241603 -0.06003458
000240 43 a3 d1 3d 5e 76 4c 3d 66 9d 4e 3c c0 34 e9 bd
       0.10236218 0.04991757 0.012610769 -0.113870144
000250 d3 53 54 bc a5 4b a6 bb b5 f8 30 3c 1f ce 18 bd
       -0.012959438 -0.0050749355 0.010801484 -0.037305947
000260 8c 1e cd bd 11 6f fa bc 14 65 e7 3d 0e 98 27 3d
       -0.10015592 -0.030570539 0.11298576 0.040916495
000270 c6 78 66 3d 6b 18 0e bd 41 98 da bd 45 84 84 3d
       0.056267522 -0.034691256 -0.106735714 0.06470541
000280 b1 da a6 bd 73 cc 5f bd 5e e5 c7 3c ca ea e6 bd
       -0.08147181 -0.054638337 0.024401363 -0.11275251
000290 c3 ac be bd e0 0a d2 bd 5c 00 b0 bd 0e 43 d6 bd
       -0.093102954 -0.102559805 -0.085938185 -0.104620084
0002a0 61 5b dc bd a2 b7 2b bd b6 85 51 3d 01 9b 0f 3d
       -0.10759617 -0.041923173 0.051152907 0.035059933
0002b0 a1 b4 88 bb 32 44 d5 3d a5 6d b8 bd 4a 37 5a 3d
       -0.0041719233 0.10413398 -0.09005288 0.053275384
0002c0 4f 4c 85 bd 77 94 2c 3d d0 9d 29 3c 78 5a 9a 3d
       -0.06508695 0.042133775 0.010352567 0.07536787
0002d0 f1 29 9c 3d f7 cf 90 bd ea 5f a8 3d 38 b7 d3 bc
       0.07625187 -0.07070916 0.08221419 -0.025844201
0002e0 6a f0 54 bd a0 f4 bc 3d d6 f0 c8 3c c1 a4 f6 3c
       -0.05198709 0.09226346 0.024528902 0.030107858
0002f0 65 2b 54 3c 7f 14 95 3c d4 73 a8 bd 25 29 d8 3d
       0.012949799 0.01819825 -0.082252175 0.10554723
000300 a8 b4 48 bb 0a d1 ca 3d 62 a1 b8 bd 3d 43 cc 3d
       -0.0030625258 0.09903152 -0.09015156 0.09973762
000310 11 bb 17 3d 09 c3 7c bd a7 39 db bd e4 ab 50 3d
       0.037043635 -0.061709438 -0.10704356 0.050945178
000320 75 94 91 3d cf 76 a5 bd af 77 cd bd b8 b0 9d bd
       0.07108394 -0.080793016 -0.100325935 -0.07699722
000330 d4 94 8f 3d 0c b3 bd 3d d7 6e b4 3c 9d dc 55 3d
       0.070108086 0.09262666 0.022025509 0.052212346
000340 3b 97 b4 bc 0f d6 12 3d fc 62 34 bd 08 82 c7 bd
       -0.022044769 0.035848673 -0.04403971 -0.09741598
000350 1c 74 d6 bd 88 b5 9c bd de de cf 3d ab cc 9a 3d
       -0.10471365 -0.07651812 0.101499304 0.075585686
000360 11 eb 11 bd dd 72 e5 3d 59 ad c1 bd db a4 8c 3b
       -0.035624567 0.11203549 -0.094568916 0.0042921132
000370 6e e0 81 bd 30 72 3f 3d c3 ed 1b ba 7d 61 fb 3c
       -0.06341635 0.046739757 -0.000594821 0.030686134
000380 90 ec 79 bd c0 85 26 bc a6 43 d2 3d 5e 9d 36 bd
       -0.06101662 -0.010163724 0.10266809 -0.04458367
000390 4f 10 1d bd 09 85 b8 bd a6 08 43 bd ab c7 6f bd
       -0.03834563 -0.090097494 -0.04761567 -0.058540028
0003a0 e9 93 a1 bc 6b 32 d8 bb 5d 56 68 bd 0b c7 8f 3d
       -0.01972385 -0.006597807 -0.056722987 0.07020386
0003b0 16 5b c9 ba 42 e7 46 3d 4a 8b 9c bd c2 89 fa bb
       -0.0015362229 0.04856039 -0.07643755 -0.0076458165
0003c0 a9 68 e6 3c 43 d5 b9 3c c2 df dc bc b7 4e 80 3d
       0.028126078 0.022684699 -0.026962165 0.06265014
0003d0 63 37 c7 bd 53 22 09 3d c3 90 a6 bb b6 b0 99 bd
       -0.09727361 0.03348 -0.005083175 -0.07504408
0003e0 fc 0c 7a 3d e7 ea d8 bd 87 0a 9f bd 4b 9e f1 bb
       0.06104754 -0.10591679 -0.0776568 -0.0073736063
0003f0 e5 be 9c bd 12 b7 97 bd f9 ad a6 bd 27 2c 3d bd
       -0.07653598 -0.07407965 -0.081386514 -0.046184685

_prop_layers.0._message_net.0.bias f4 [64]
000000 41 e9 20 3b 6d 3b 38 bd 7c a4 a2 3d 9f b8 8d bd
       0.0024553093 -0.044978548 0.07941529 -0.06919979
000010 3e b5 55 3c b6 6f f5 ba 10 ba 0f bd 09 e6 74 bd
       0.0130437 -0.0018725309 -0.035089552 -0.05978969
000020 db b1 df 3d 97 ca c9 3d 4e d6 bf bd 59 1d a3 bc
       0.10922595 0.09853094 -0.09367047 -0.019911455
000030 b4 37 b4 bb b2 32 9d 3b 1d 9a ba 3d 99 e9 b2 3d
       -0.0054998044 0.004797303 0.09111426 0.087359615
000040 b1 ea 35 3d 24 a5 c8 3d c2 a0 83 bd 78 6c 38 bd
       0.044413272 0.09797123 -0.064271465 -0.04502532
000050 dd 9c 02 29 30 4e a7 3d 94 b2 a7 bc 63 f7 56 3d
       2.9001856e-14 0.0816921 -0.020470895 0.05248202
000060 d8 b2 b2 3d 7a 88 3d bd 71 34 4b bd b1 91 89 bd
       0.08725518 -0.046272732 -0.04961056 -0.067172416
000070 6f d0 3d bc 53 25 d2 bd 12 be de 3d 42 3d 6f bd
       -0.011585339 -0.10261025 0.10876097 -0.05840803
000080 eb 64 a4 bd 75 e7 b1 bd 43 89 24 bd 90 53 2b 3d
       -0.08027061 -0.08686725 -0.040169965 0.04182774
000090 7f e0 a5 bd 09 ab a5 a0 44 5d 89 bd cd 33 34 bd
       -0.0809946 -2.806527e-19 -0.06707242 -0.043994714
0000a0 d7 9b 02 3d e4 86 11 bd dc 93 0b 3d 8b dd 96 bd
       0.0318869 -0.035529032 0.034076557 -0.07366475
0000b0 02 f2 52 3d 71 cb 97 3d 88 3e a8 3b 84 4f 1d bd
       0.051500328 0.0741185 0.0051344074 -0.03840591
0000c0 6f b4 36 bc c2 e8 42 3d 5e 64 da 3c 65 92 de 3d
       -0.011151417 0.047585256 0.026659187 0.10867766
0000d0 19 ce 96 3c 02 69 ef bc a2 e6 f4 3b 67 9b aa bd
       0.018408822 -0.029224876 0.0074737826 -0.08330422
0000e0 a8 69 c9 bb a5 b1 86 3d 12 37 af bd f5 fb 69 bc
       -0.0061466284 0.06576852 -0.08555426 -0.014281263
0000f0 18 1e ba 3d a7 56 89 3c 1d ec 8a 3d 74 0f ea bb
       0.09087771 0.016764952 0.06783316 -0.0071429554
